{"format": "torch", "nodes": [{"name": "enc_embedding", "id": 132998029883616, "class_name": "DataEmbedding(\n  (value_embedding): TokenEmbedding(\n    (tokenConv): Conv1d(14, 16, kernel_size=(3,), stride=(1,), padding=(1,), bias=False, padding_mode=circular)\n  )\n  (position_embedding): PositionalEmbedding()\n  (temporal_embedding): TimeFeatureEmbedding(\n    (embed): Linear(in_features=4, out_features=16, bias=False)\n  )\n  (dropout): Dropout(p=0.1, inplace=False)\n)", "parameters": [["value_embedding.tokenConv.weight", [16, 14, 3]], ["temporal_embedding.embed.weight", [16, 4]]], "output_shape": [[16, 96, 16]], "num_parameters": [672, 64]}, {"name": "predict_linear", "id": 132998028917440, "class_name": "Linear(in_features=96, out_features=144, bias=True)", "parameters": [["weight", [144, 96]], ["bias", [144]]], "output_shape": [[16, 16, 144]], "num_parameters": [13824, 144]}, {"name": "model.0", "id": 132998084093408, "class_name": "TimesBlock(\n  (conv): Sequential(\n    (0): Inception_Block_V1(\n      (kernels): ModuleList(\n        (0): Conv2d(16, 2048, kernel_size=(1, 1), stride=(1, 1))\n        (1): Conv2d(16, 2048, kernel_size=(3, 3), stride=(1, 1), padding=(1, 1))\n        (2): Conv2d(16, 2048, kernel_size=(5, 5), stride=(1, 1), padding=(2, 2))\n        (3): Conv2d(16, 2048, kernel_size=(7, 7), stride=(1, 1), padding=(3, 3))\n        (4): Conv2d(16, 2048, kernel_size=(9, 9), stride=(1, 1), padding=(4, 4))\n        (5): Conv2d(16, 2048, kernel_size=(11, 11), stride=(1, 1), padding=(5, 5))\n      )\n    )\n    (1): GELU(approximate='none')\n    (2): Inception_Block_V1(\n      (kernels): ModuleList(\n        (0): Conv2d(2048, 16, kernel_size=(1, 1), stride=(1, 1))\n        (1): Conv2d(2048, 16, kernel_size=(3, 3), stride=(1, 1), padding=(1, 1))\n        (2): Conv2d(2048, 16, kernel_size=(5, 5), stride=(1, 1), padding=(2, 2))\n        (3): Conv2d(2048, 16, kernel_size=(7, 7), stride=(1, 1), padding=(3, 3))\n        (4): Conv2d(2048, 16, kernel_size=(9, 9), stride=(1, 1), padding=(4, 4))\n        (5): Conv2d(2048, 16, kernel_size=(11, 11), stride=(1, 1), padding=(5, 5))\n      )\n    )\n  )\n)", "parameters": [["conv.0.kernels.0.weight", [2048, 16, 1, 1]], ["conv.0.kernels.0.bias", [2048]], ["conv.0.kernels.1.weight", [2048, 16, 3, 3]], ["conv.0.kernels.1.bias", [2048]], ["conv.0.kernels.2.weight", [2048, 16, 5, 5]], ["conv.0.kernels.2.bias", [2048]], ["conv.0.kernels.3.weight", [2048, 16, 7, 7]], ["c
…
